TTPNet(
  (bi_lstm): PredictionBiLSTM(
    (attr_net): Attr(
      (driverID_em): Embedding(13000, 8)
      (weekID_em): Embedding(7, 3)
      (timeID_em): Embedding(1440, 8)
    )
    (speed_lstm): SpeedLSTM(
      (shortspeed_net): ShortSpeed(
        (short_cnn): Conv1d(3, 4, kernel_size=(2,), stride=(1,))
        (short_rnn): RNN(4, 16, batch_first=True)
      )
      (longspeed_net): LongSpeed(
        (long_cnn): Conv1d(3, 4, kernel_size=(3,), stride=(1,))
        (long_rnn): RNN(4, 16, batch_first=True)
      )
      (process_speeds): Linear(in_features=64, out_features=32, bias=True)
      (speed_lstm): LSTM(32, 32, batch_first=True)
    )
    (road_lstm): RoadLSTM(
      (Road_net): Road(
        (embedding): Embedding(65536, 16)
        (process_coords): Linear(in_features=34, out_features=32, bias=True)
      )
      (Road_lstm): LSTM(32, 32, batch_first=True)
    )
    (bi_lstm): LSTM(85, 64, num_layers=2, batch_first=True, bidirectional=True)
    (lnhiddens): LayerNorm(torch.Size([85]), eps=1e-05, elementwise_affine=True)
  )
  (input2hid): Linear(in_features=128, out_features=128, bias=True)
  (hid2hid): Linear(in_features=128, out_features=64, bias=True)
  (hid2out): Linear(in_features=64, out_features=1, bias=True)
)
[('batch_size', 256), ('epochs', 50), ('log_file', 'TTPNet'), ('result_file', './result/TTPNet.res'), ('task', 'train'), ('weight_file', None)]
Training Epoch 0, File 2013-10-20.json, Loss 0.6455774456262589
Evaluate File 2013-10-21.json, Loss 0.6240849941968918
Evaluate File 2013-10-22.json, Loss 0.2556966245174408
Evaluate File 2013-10-23.json, Loss 0.6413138061761856
…
